…
(76407@mtx10[0]) 2024-05-11 08:03:23,797 [INFO] common.GANInputParameters:   * Activation function         : ReLU
(76407@mtx10[0]) 2024-05-11 08:03:23,798 [INFO] common.TrainingInputParameters: Training inputs parameters
(76407@mtx10[0]) 2024-05-11 08:03:23,798 [INFO] common.TrainingInputParameters:  Epochs from: 0 to 1000000 saving every 1000
(76407@mtx10[0]) 2024-05-11 08:03:23,798 [INFO] common.TrainingInputParameters: 
Model: "functional_1"
┏━━━━━━━━━━━━━━━━━━━━━┳━━━━━━━━━━━━━━━━━━━┳━━━━━━━━━━━━┳━━━━━━━━━━━━━━━━━━━┓
┃ Layer (type)        ┃ Output Shape      ┃    Param # ┃ Connected to      ┃
┡━━━━━━━━━━━━━━━━━━━━━╇━━━━━━━━━━━━━━━━━━━╇━━━━━━━━━━━━╇━━━━━━━━━━━━━━━━━━━┩
│ Noise (InputLayer)  │ (None, 100)       │          0 │ -                 │
├─────────────────────┼───────────────────┼────────────┼───────────────────┤
│ mycond (InputLayer) │ (None, 2)         │          0 │ -                 │
├─────────────────────┼───────────────────┼────────────┼───────────────────┤
│ concatenate         │ (None, 102)       │          0 │ Noise[0][0],      │
│ (Concatenate)       │                   │            │ mycond[0][0]      │
├─────────────────────┼───────────────────┼────────────┼───────────────────┤
│ dense (Dense)       │ (None, 200)       │     20,600 │ concatenate[0][0] │
├─────────────────────┼───────────────────┼────────────┼───────────────────┤
│ dense_1 (Dense)     │ (None, 400)       │     80,400 │ dense[0][0]       │
├─────────────────────┼───────────────────┼────────────┼───────────────────┤
│ dense_2 (Dense)     │ (None, 800)       │    320,800 │ dense_1[0][0]     │
├─────────────────────┼───────────────────┼────────────┼───────────────────┤
│ dense_3 (Dense)     │ (None, 533)       │    426,933 │ dense_2[0][0]     │
└─────────────────────┴───────────────────┴────────────┴───────────────────┘
 Total params: 848,733 (3.24 MB)
 Trainable params: 848,733 (3.24 MB)
 Non-trainable params: 0 (0.00 B)
/usr/local/lib/python3.9/site-packages/keras/src/layers/core/dense.py:86: UserWarning: Do not pass an `input_shape`/`input_dim` argument to a layer. When using Sequential models, prefer using an `Input(shape)` object as the first layer in the model instead.
  super().__init__(activity_regularizer=activity_regularizer, **kwargs)
Model: "sequential"
┏━━━━━━━━━━━━━━━━━━━━━━━━━━━━━━━━━┳━━━━━━━━━━━━━━━━━━━━━━━━┳━━━━━━━━━━━━━━━┓
┃ Layer (type)                    ┃ Output Shape           ┃       Param # ┃
┡━━━━━━━━━━━━━━━━━━━━━━━━━━━━━━━━━╇━━━━━━━━━━━━━━━━━━━━━━━━╇━━━━━━━━━━━━━━━┩
│ dense_4 (Dense)                 │ (None, 64)             │        34,304 │
├─────────────────────────────────┼────────────────────────┼───────────────┤
│ re_lu (ReLU)                    │ (None, 64)             │             0 │
├─────────────────────────────────┼────────────────────────┼───────────────┤
│ dense_5 (Dense)                 │ (None, 512)            │        33,280 │
├─────────────────────────────────┼────────────────────────┼───────────────┤
│ re_lu_1 (ReLU)                  │ (None, 512)            │             0 │
├─────────────────────────────────┼────────────────────────┼───────────────┤
│ dense_6 (Dense)                 │ (None, 32)             │        16,416 │
├─────────────────────────────────┼────────────────────────┼───────────────┤
│ re_lu_2 (ReLU)                  │ (None, 32)             │             0 │
├─────────────────────────────────┼────────────────────────┼───────────────┤
│ dense_7 (Dense)                 │ (None, 32)             │         1,056 │
├─────────────────────────────────┼────────────────────────┼───────────────┤
│ re_lu_3 (ReLU)                  │ (None, 32)             │             0 │
├─────────────────────────────────┼────────────────────────┼───────────────┤
│ dense_8 (Dense)                 │ (None, 1)              │            33 │
└─────────────────────────────────┴────────────────────────┴───────────────┘
 Total params: 85,089 (332.38 KB)
 Trainable params: 85,089 (332.38 KB)
 Non-trainable params: 0 (0.00 B)
(76407@mtx10[0]) 2024-05-11 08:03:23,973 [INFO] model.conditional_wgangp: training started
(76407@mtx10[0]) 2024-05-11 08:03:23,973 [INFO] model.conditional_wgangp: Memory required before loading data: 792160
(76407@mtx10[0]) 2024-05-11 08:03:23,973 [INFO] model.conditional_wgangp: Opening vox files...
…
